out-txt-models/ckpt_iter_0_rand.pt (torch, 127410 bytes, 52 tensors)

_orig_mod.transformer.wte.weight f4 [10, 16]
0	0xbc94b3e7	-0.01815219
1	0xbb6d4c32	-0.0036208746
2	0xbabd075b	-0.0014421748
3	0xbd0a9819	-0.033836458
4	0xbc8e58b0	-0.017376274
5	0x3c9c0e0e	0.01904967
6	0x3b4df262	0.003142499
7	0xbb30940a	-0.0026943707
8	0xbc40277d	-0.011728165
9	0x3cd3b08e	0.025841024
10	0xbc193e46	-0.009353226
11	0x3c1035bd	0.008801875
12	0x3c8367c7	0.016040696
13	0xbba2c950	-0.004967846
14	0xbcf3618c	-0.0297096
15	0xbc31e58b	-0.01085795
16	0x3c31cf9d	0.0108527215
17	0x3bd6fca2	0.006560878
18	0x3cb86289	0.022507923
19	0x3b35ab44	0.002772049
20	0x3c86b5b5	0.016444067
21	0x3c2d4527	0.010575569
22	0x3bf7b4b8	0.007559385
23	0x3bf3df40	0.007442385
24	0xbc2d81fe	-0.010590075
25	0x3c8102c2	0.015748385
26	0x3cb74759	0.022372888
27	0x3c576550	0.013146713
28	0xbb3ea269	-0.0029088503
29	0xbc9fbb04	-0.019498356
30	0xbc5245e7	-0.012834049
31	0xbb862fed	-0.0040950687
32	0x3c8dd600	0.017313957
33	0xbc8f98ff	-0.017529009
34	0x3c0512db	0.008122171
35	0x3c97659b	0.018481066
36	0x3caaa20d	0.020829225
37	0xbd19007b	-0.037353974
38	0x3c6daaa0	0.014506012
39	0xbd16fc1c	-0.036861524
40	0x3b698225	0.003563055
41	0x3c3b6b3c	0.011439141
42	0x3c271d79	0.010199898
43	0xbbf5b01d	-0.007497801
44	0x3a789ce2	0.00094838266
45	0x3b2358c9	0.0024924746
46	0x3c1a1364	0.009404037
47	0xbcc3976a	-0.02387591
48	0xbd026d5b	-0.03184257
49	0xbc18ee0a	-0.009334097
50	0x3c00eed2	0.007869439
51	0x3d2388a9	0.03992525
52	0xb82ceeb2	-4.1230298e-05
53	0x3c82de36	0.015975099
54	0xbb82a847	-0.0039873454
55	0x3c21c490	0.009873524
56	0x3b22bfcd	0.002483356
57	0xbc506bc0	-0.012721002
58	0x3b165cb9	0.002294345
59	0xbbe53994	-0.0069953892
60	0x3bd1bad4	0.0064004455
61	0xbc792a81	-0.015207888
62	0xbc957229	-0.018242912
63	0xbba690d0	-0.005083181
64	0x3a521893	0.0008014526
65	0x3b421905	0.0029616964
66	0xbc947ffb	-0.018127432
67	0x3c7f5c92	0.015586035
68	0xbc76e69c	-0.01506963
69	0xbbff95a1	-0.0077998196
70	0x3d23fe90	0.04003769
71	0xbb2fd607	-0.002683045
72	0xbc4a2b29	-0.012339392
73	0xbccb7d20	-0.024839938
74	0x38fe4954	0.00012125322
75	0x3beff2d2	0.0073226476
76	0x3b17ef75	0.00231835
77	0x3cac449e	0.021028813
78	0x3d04c382	0.032413013
79	0xbb880ef2	-0.0041521722
80	0xbcba4444	-0.02273763
81	0xb9a595d9	-0.00031582898
82	0xbc95094d	-0.018192912
83	0x3d07c5c7	0.0331476
84	0x3d4ff92f	0.05077475
85	0x3bb011ad	0.005373201
86	0xbcf3256f	-0.029680936
87	0x3ae9086c	0.0017778999
88	0xbcd9142e	-0.02649888
89	0x3ba5979b	0.005053473
90	0xbd154ab5	-0.0364482
91	0xb9032c37	-0.00012509605
92	0x3b27e752	0.0025620055
93	0x3c1131d6	0.0088619795
94	0xbc0c01bf	-0.008545338
95	0x3cd27e32	0.02569494
96	0xbce5990c	-0.02802708
97	0x3ac45557	0.0014979047
98	0xbc84e706	-0.016223442
99	0xb9bc3799	-0.00035899578
100	0x3b5991bc	0.0033198437
101	0x3b3dbb7c	0.002895086
102	0x3c0ae91e	0.008478431
103	0xbb9e9d8d	-0.004840559
104	0xbb1f029b	-0.0024263028
105	0x3c9cd490	0.019144326
106	0x3a8cb2e4	0.0010734466
107	0xbc4f5440	-0.012654364
108	0x3b753ab0	0.0037419014
109	0x3ca6012d	0.020264233
110	0xbb913562	-0.0044314126
111	0x3c833b70	0.016019553
112	0x3c663fb8	0.014053278
113	0xbcd5cdb9	-0.026099073
114	0xbd035448	-0.0320628
115	0xbb49aa57	-0.0030771696
116	0x3a2ff256	0.0006711831
117	0xbc88dcff	-0.016706942
118	0xbd295844	-0.041343942
119	0xbcf32af4	-0.029683568
120	0x3b122dc7	0.0022305117
121	0xbcbc213c	-0.022965066
122	0xbcf84299	-0.030305194
123	0xbd233e84	-0.03985454
124	0x3d45d26f	0.04829639
125	0x397bec17	0.00024025176
126	0x3b86f329	0.0041183424
127	0x3cab174b	0.02088513
128	0x3b7fbee5	0.0039023694
129	0xbc5c8953	-0.013460475
130	0x3c001604	0.007817749
131	0xbd1d2831	-0.038368408
132	0xbc9206a9	-0.017825441
133	0xbc361147	-0.011112518
134	0x3af5661e	0.001872245
135	0x3c799cf7	0.015235177
136	0xbc96918d	-0.01837995
137	0xbb92074a	-0.0044564353
138	0xbb5c1ca4	-0.0033586407
139	0xbbd81dae	-0.006595335
140	0xbc06143b	-0.008183534
141	0x3c79040f	0.015198722
142	0x3c83ca5c	0.016087703
143	0xbd2809d2	-0.04102499
144	0xbc60a115	-0.01371028
145	0x3c184eae	0.009296102
146	0x3c2b7c26	0.010466611
147	0xbc044c82	-0.0080748815
148	0x3cab7ad9	0.020932602
149	0x3b704d40	0.0036667138
150	0xbc97da1e	-0.018536624
151	0xbc3935e0	-0.011304349
152	0x3c4d0a44	0.012514655
153	0x3bf19ac7	0.007373187
154	0xbb824676	-0.0039756848
155	0x3bb852c0	0.005625099
156	0x3ce895ab	0.02839168
157	0xbb9e66c7	-0.0048340294
158	0x3b2250f6	0.0024767495
159	0x3ce5a893	0.028034484

_orig_mod.transformer.wpe.weight f4 [35, 16]
0	0xbcb5ae58	-0.02217786
1	0x3be7e704	0.0070770998
2	0x3cde0085	0.027099857
3	0xbc6b05e6	-0.014344668
4	0x3b502318	0.0031759199
5	0xbc9bc36e	-0.019014087
6	0xbc5aafdd	-0.013347593
7	0x3cb1c4a0	0.021700203
8	0xbc417ae6	-0.011809086
9	0xbba42ab2	-0.0050099725
10	0xbc06d3de	-0.008229224
11	0x3c33debb	0.010978396
12	0x3d425e73	0.047453355
13	0x3caae04a	0.020858902
14	0x3cabbadc	0.020963125
15	0xbcc84dd5	-0.024451176
16	0x3cc8a2db	0.024491718
17	0xbc6cade2	-0.014445754
18	0x3c366493	0.011132377
19	0x3cf57e2a	0.029967386
20	0x3b63c905	0.0034757268
21	0xbcc66d10	-0.024221927
22	0x3cd67c84	0.02618242
23	0xbc47b47b	-0.012189026
24	0xbd0df93a	-0.03466151
25	0xbc9e9c8d	-0.019361759
26	0x3bd5a727	0.0065201703
27	0xbceed59c	-0.029154591
28	0x3ce4daf2	0.027936433
29	0x3c632c26	0.013865506
30	0x3ba52253	0.005039492
31	0x3c3e48f3	0.011614072
32	0x3bc46313	0.005993256
33	0x3b515472	0.0031941202
34	0x3cb9078a	0.022586603
35	0xbc6dab4e	-0.014506174
36	0x39620ef3	0.00021558609
37	0x3c7cc4ef	0.015427812
38	0x3c084984	0.008318309
39	0xbc605a07	-0.013693339
40	0x3bb3f4a5	0.0054918104
41	0xbc839b07	-0.016065134
42	0x3ad4ad7c	0.0016226019
43	0x3c9c0fad	0.019050444
44	0xbb08255f	-0.0020774228
45	0xbcd4d698	-0.025981233
46	0xbb27c0ce	-0.0025597098
47	0x3d8dd3d7	0.06925171
48	0xbc4182de	-0.011810986
49	0xbc13e222	-0.009026082
50	0xbcd43682	-0.025904898
51	0xbb2dac12	-0.0026500267
52	0x3ca4b98a	0.020108003
53	0x3c41e559	0.011834466
54	0xbd110cc6	-0.035412572
55	0x3c3bf05e	0.011470882
56	0x3c91cc14	0.017797507
57	0xbcbf7061	-0.023369016
58	0xbc021822	-0.007940324
59	0x3cf9d349	0.030496256
60	0x3c279df0	0.010230526
61	0xba729abb	-0.0009254624
62	0xbb736a2b	-0.0037142138
63	0x3c03f081	0.008052946
64	0xbce61f95	-0.028091231
65	0xbbbe33c7	-0.005804512
66	0xbcab13db	-0.020883491
67	0xbcc1dcaa	-0.023664791
68	0xbc6ed606	-0.014577394
69	0xbd4e9ee0	-0.050444484
70	0x3c2369ee	0.009973986
71	0xbce05cea	-0.027388055
72	0xbc7945a6	-0.015214359
73	0xbca7e364	-0.02049417
74	0xbc9a1e57	-0.018813295
75	0x3d021814	0.031761244
76	0x3c894b89	0.01675965
77	0x3d1a2033	0.037628364
78	0x3c0d6721	0.008630545
79	0x3caa604f	0.020797877
80	0xbc53da18	-0.012930416
81	0xbcae28db	-0.021259716
82	0xbcb713a6	-0.022348236
83	0x3ba11bcd	0.004916644
84	0xbcf2b5c7	-0.029627694
85	0x3ba07176	0.004896338
86	0x396e18e1	0.00022706717
87	0xbc985aa7	-0.018597914
88	0xbcf11b42	-0.029431943
89	0xbb66ddc2	-0.0035227393
90	0xbbe036eb	-0.006842484
91	0x3d52390e	0.051323943
92	0x3bb500c1	0.0055237715
93	0xbc5181de	-0.01278731
94	0x3c52a453	0.012856561
95	0xbd244f6e	-0.040114813
96	0x3c83e820	0.016101897
97	0x3ba69d4b	0.0050846688
98	0x3c9d94aa	0.019235928
99	0xbc491bb0	-0.012274668
100	0x3d8482a4	0.0647023
101	0x3cc8e6f0	0.024524182
102	0x3d2068b6	0.03916236
103	0x3ca9591e	0.020672377
104	0x3b9cb2cb	0.004782056
105	0xbc48531d	-0.012226847
106	0x3c71e5c1	0.01476425
107	0x3c7c0c05	0.015383725
108	0x3ad6149e	0.0016333049
109	0x3ce7c153	0.028290426
110	0xba94c6b2	-0.001135072
111	0x3cefd03d	0.0292741
112	0x3bcbe644	0.006222518
113	0x3a27f3d4	0.00064068777
114	0x3c520cb8	0.012820415
115	0xbcfe8852	-0.031070862
116	0x3d2b73d9	0.041858528
117	0xbbf9d16e	-0.007623843
118	0x3ad4aadd	0.0016225238
119	0xbd0cff3d	-0.0344231
120	0x3d099704	0.033591285
121	0xbc65f20a	-0.014034757
122	0x3c623a95	0.013807912
123	0xbc9efce6	-0.0194077
124	0x3adcd2b2	0.001684746
125	0xbbfc3ad2	-0.0076974416
126	0x3c25df06	0.010123974
127	0xbc2f2757	-0.010690532
128	0x3bac8957	0.0052653956
129	0xbcf2a605	-0.02962018
130	0xb9aa2918	-0.00032455544
131	0xbd07bc80	-0.033138752
132	0x3a9afe2b	0.0011825016
133	0xbc7aaa99	-0.015299463
134	0x3d2f5017	0.04280099
135	0x3c9e5be1	0.01933092
136	0xbc9f2372	-0.019426081
137	0x3ca986c6	0.020694148
138	0x3b4a3a04	0.0030857334
139	0xbd22f5bf	-0.039785143
140	0x3c6f557d	0.014607784
141	0x3d06a0a7	0.032868054
142	0x3d1f72b1	0.038927738
143	0x3d00e25f	0.031465884
144	0xbcb35632	-0.021891687
145	0xbc6e08a2	-0.014528425
146	0x3bcdb475	0.0062776157
147	0xbcd17df7	-0.02557276
148	0xbbf66f15	-0.007520566
149	0xbcf13ef4	-0.029448964
150	0x3c16b93d	0.009199438
151	0x3c347164	0.011013363
152	0x3b9259c9	0.0044662696
153	0x3c1f5d03	0.009726766
154	0x3d7dfd8a	0.06200937
155	0x3cc83a57	0.024441881
156	0x3cc57cf7	0.02410744
157	0x3c7137c9	0.014722773
158	0xbc1eda53	-0.009695607
159	0xbca80281	-0.020509006
160	0x3b710223	0.0036774955
161	0xbc7008d3	-0.014650541
162	0xbc10a705	-0.008828883
163	0x39210567	0.00015356169
164	0xbc0900a1	-0.008361966
165	0xbc77a9d8	-0.0151161775
166	0x3d0bcf8f	0.03413349
167	0xba1b279e	-0.0005918684
168	0xbcb8802b	-0.022522053
169	0xbbadce1b	-0.0053041107
170	0x3bb4f752	0.005522647
171	0x3cacb341	0.021081569
172	0x3b9b4a5a	0.004739088
173	0x3cb89761	0.02253312
174	0xbc829ae6	-0.015943002
175	0x3c65792c	0.01400594
176	0x3c0abe5f	0.00846824
177	0xbcf4718b	-0.029839298
178	0xbc1d9a62	-0.009619327
179	0x3bc0c14a	0.005882417
180	0xbac1cf0a	-0.0014786434
181	0xbc086fb3	-0.008327412
182	0x3bb87498	0.0056291334
183	0x3cf2f1a6	0.029656243
184	0xbc4612e2	-0.012089463
185	0x3c272de4	0.010203812
186	0x3ca5218d	0.0201576
187	0x3d0f59ca	0.03499774
188	0x3b7012d2	0.0036632312
189	0xbbc59761	-0.0060300087
190	0xbca2cdaa	-0.019873459
191	0x3ca70f42	0.020393018
192	0xb97b2054	-0.00023949269
193	0xbc0a25c6	-0.008431857
194	0x3c0e107d	0.008670923
195	0xbb10c5b9	-0.0022090508
196	0x3ca607d9	0.020267414
197	0x3d352b7b	0.04423092
198	0xbcc12c70	-0.02358076
199	0x3c1ab74d	0.009443116
200	0xbc56e817	-0.013116858
201	0x3b583d38	0.0032995474
202	0xba54d364	-0.0008118658
203	0x3d21542a	0.039386906
204	0xbc81b00f	-0.015831022
205	0x3c0cebcf	0.008601143
206	0xbb8b3b6d	-0.0042490275
207	0x3acf2d75	0.0015806394
208	0x3c329400	0.010899544
209	0xbbf2d554	-0.0074106846
210	0x3badb696	0.005301307
211	0xbb90eba8	-0.0044226237
212	0x3d016527	0.031590607
213	0x3ab28c49	0.001362213
214	0xbd04081d	-0.0322343
215	0xbb9c3f5b	-0.0047682947
216	0xbc73196b	-0.014837603
217	0x3bcd1a7e	0.0062592616
218	0x3b761d37	0.0037554034
219	0xbc97b896	-0.018520635
220	0xbc8afa67	-0.016965104
221	0xbc17d0c0	-0.0092660785
222	0x3cda9a18	0.026684806
223	0x3bc4f19e	0.0060102483
224	0x3c9bfb1a	0.019040633
225	0xbc17eed6	-0.0092732515
226	0xbcf97c50	-0.030454785
227	0x3d086299	0.033297155
228	0xbc50d32b	-0.012745659
229	0xbcdc13d9	-0.026864933
230	0x3d513833	0.051078986
231	0x3c13237b	0.008980627
232	0x3d1b4699	0.037909124
233	0x3ba582b0	0.0050509796
234	0x3bf13779	0.007361349
235	0xbccae486	-0.024767172
236	0x3c9f53ec	0.019449197
237	0xbb7bf2b7	-0.003844423
238	0x3b7e3842	0.0038790856
239	0xbb700132	-0.0036621806
240	0x3c8ccb50	0.01718679
241	0xbbe4a9f7	-0.006978269
242	0x3c5a33a5	0.013317977
243	0xbc08b1cf	-0.008343174
244	0x3cb3d2f0	0.021951169
245	0xbc53eee9	-0.012935379
246	0xbc103946	-0.008802718
247	0x3b2da807	0.0026497857
248	0x3cec8239	0.028870689
249	0x3cead947	0.028668059
250	0x3c93128b	0.017953178
251	0x3c896999	0.016773986
252	0x3d0aa629	0.03384987
253	0x3c12cb1e	0.00895956
254	0x3cb21caa	0.021742184
255	0xbc6b9afc	-0.014380213

_orig_mod.transformer.h.0.ln_1.weight f4 [16]
0	0x00000000	0.0
1	0x00000000	0.0
2	0x00000000	0.0
3	0x00000000	0.0
4	0x00000000	0.0
5	0x00000000	0.0
6	0x00000000	0.0
7	0x00000000	0.0
8	0x00000000	0.0
9	0x00000000	0.0
10	0x00000000	0.0
11	0x00000000	0.0
12	0x00000000	0.0
13	0x00000000	0.0
14	0x00000000	0.0
15	0x00000000	0.0

_orig_mod.transformer.h.0.attn.c_attn.weight f4 [48, 16]
0	0x3c464295	0.012100835
1	0x3c06bbf7	0.008223525
2	0x3b39b1d4	0.0028334754
3	0x3d32d4c2	0.043659933
4	0x3bad03d4	0.0052799974
5	0xbcc1ad33	-0.023642158
6	0xbc333b8f	-0.010939493
7	0xbca813b9	-0.020517217
8	0xbc8ce6e0	-0.017199934
9	0x3b09db34	0.0021035196
10	0x3ca42187	0.020035518
11	0xbb2ed510	-0.0026677288
12	0xbcbc5bae	-0.022992935
13	0x3c335d65	0.01094756
14	0xbba9b91b	-0.005179537
15	0x3c548095	0.0129701095
16	0xbb7d7fc0	-0.0038680881
17	0x3b8f9b16	0.0043825014
18	0x3c2a6bd2	0.010401683
19	0xbbb1df3b	-0.0054282225
20	0xbb323e8a	-0.002719792
21	0x3b9fab3b	0.004872707
22	0xbcc6c51d	-0.024263913
23	0xbd0845b2	-0.03326959
24	0x3b8394c7	0.0040155384
25	0xba1f3ad7	-0.00060741365
26	0x3ad90e32	0.0016560017
27	0xbc848498	-0.016176507
28	0x3b81877f	0.00395292
29	0xbd070fb9	-0.03297398
30	0xbbfd60aa	-0.0077324705
31	0x3d9086d5	0.07056967
32	0x3cf1a19d	0.029496009
33	0xbd1120fb	-0.035431843
34	0x3bae8f41	0.005327136
35	0xbb3b916b	-0.0028620611
36	0xbcd0f229	-0.025506096
37	0xbcaaa1e6	-0.020829152
38	0x3d537de0	0.051633716
39	0x3b47a8b8	0.0030465554
40	0xbce798c1	-0.02827108
41	0x3d130fb2	0.03590364
42	0x3b2d2f42	0.0026425873
43	0xbc47d001	-0.012195588
44	0x3b230435	0.0024874334
45	0x3ce1bdec	0.027556382
46	0xbb80a416	-0.0039258106
47	0x3d7fc054	0.062439278
48	0xbbb3ab74	-0.0054830853
49	0x3a3d16dd	0.0007213185
50	0xbcf0f87b	-0.02941536
51	0x3c53df20	0.012931615
52	0x3bb18ac1	0.005418152
53	0x3d035e6a	0.032072462
54	0xbd076347	-0.033053663
55	0x3b189396	0.0023281327
56	0x3d43ce34	0.047804072
57	0xbb6debe9	-0.0036303943
58	0x3b7f8425	0.0038988676
59	0x3be4f7f9	0.0069875685
60	0x3bf16f45	0.0073680007
61	0xbc36c778	-0.0111559555
62	0xbb34ab27	-0.0027567835
63	0x3be9bf0c	0.0071333703
64	0x3b45e1ef	0.0030194481
65	0x3c81f8e2	0.015865747
66	0xbca07512	-0.019587073
67	0x3c0c9ada	0.008581841
68	0xbbd66eb7	-0.00654396
69	0x3b0c7076	0.0021429337
70	0xbc28a282	-0.010292651
71	0x3c9c3c4c	0.01907172
72	0x3c770446	0.015076702
73	0xbc817f2f	-0.015807716
74	0x3d1f34eb	0.038868826
75	0x3c938349	0.018006938
76	0x3d499e0b	0.049222987
77	0x3c45504d	0.012043071
78	0xbd32641c	-0.043552503
79	0x3c29566b	0.010335545
80	0x3aeb8be1	0.0017970764
81	0x3bb7786a	0.0055990713
82	0xbbf373cf	-0.007429577
83	0xbcb5b867	-0.022182656
84	0x3a5761ab	0.0008216153
85	0x3ca54a54	0.020177044
86	0x3c806387	0.015672458
87	0x3bb3863d	0.005478649
88	0x3d1dcd2b	0.03852574
89	0xbaabf77d	-0.0013120022
90	0xbca8a244	-0.020585187
91	0x3b9135ff	0.0044314857
92	0xbc8ef5ad	-0.017451132
93	0xbc8541c0	-0.016266704
94	0x3b10ecf7	0.0022113898
95	0x3c9bd51a	0.019022513
96	0x3c2b9c09	0.010474213
97	0x3d01a1fb	0.031648617
98	0x3c2d461c	0.010575797
99	0xb95b3702	-0.0002090596
100	0x3c7e221d	0.015511063
101	0xbc1e8df1	-0.009677396
102	0xbcc197f0	-0.02363202
103	0xbc634912	-0.013872402
104	0xbc173016	-0.009227773
105	0x3d37f830	0.044914424
106	0x3c1784f2	0.009248005
107	0xbcb9fc2d	-0.022703255
108	0x3cfde338	0.030992135
109	0x3c44d070	0.012012586
110	0xbb6fefbe	-0.0036611403
111	0xbc122c02	-0.008921625
112	0x3b41f50b	0.002959552
113	0x3b21fb62	0.0024716486
114	0x3c284646	0.010270661
115	0x3c4b2bb4	0.012400556
116	0x3d03564d	0.032064725
117	0x3c49d5b4	0.012319017
118	0xbcf6f467	-0.030145837
119	0x3c4ac5f9	0.012376302
120	0x3b882291	0.0041545113
121	0xbc565990	-0.013082877
122	0x3ca1d1ab	0.019753298
123	0xb9dac28b	-0.00041725146
124	0xbcdef8e9	-0.027218299
125	0x3c6cbd93	0.014449495
126	0xbcd8d1be	-0.0264672
127	0x3acaf98a	0.0015485745
128	0xbbe1ddbd	-0.0068928883
129	0xbd83fe5d	-0.06445
130	0x3c8af994	0.016964711
131	0xbce5c8bb	-0.028049817
132	0x3b8b3194	0.0042478535
133	0xbbdc43f7	-0.006721969
134	0x3c1b81d3	0.009491402
135	0x3c3e3b7b	0.011610861
136	0x373a97ea	1.1121834e-05
137	0xbc762345	-0.015023057
138	0x3c7cd000	0.01543045
139	0xbc9e5e52	-0.019332085
140	0x3d11719f	0.03550875
141	0x3cd8f9d7	0.02648632
142	0x3cf068a5	0.029346773
143	0x3bb2fde4	0.005462395
144	0xbc1c7de7	-0.009551502
145	0x3af75702	0.0018870535
146	0xbd16793e	-0.03673672
147	0xbcb9bbc9	-0.02267255
148	0xbaed1e92	-0.0018090776
149	0xbc9931b9	-0.018700467
150	0x3b970f06	0.004609945
151	0xbcdef5ef	-0.02721688
152	0x3aa46730	0.0012542959
153	0xbc223260	-0.009899706
154	0x3c5d5e0c	0.013511192
155	0x3c6a23ab	0.0142907305
156	0xbb878503	-0.0041357293
157	0xbcf35d1b	-0.029707482
158	0xbb1a1b30	-0.002351474
159	0xbc9ca716	-0.019122642
160	0xbcf23358	-0.029565498
161	0xbc106e8d	-0.00881542
162	0xbc5b20fe	-0.013374565
163	0x3c225b36	0.009909442
164	0xbc03f9c5	-0.008055155
165	0xbc2d7cb7	-0.010588816
166	0xba928cb0	-0.0011180844
167	0x3c19a8c2	0.009378614
168	0xbbac902f	-0.0052662115
169	0xbcb38e39	-0.021918403
170	0x3c82bcb7	0.015959127
171	0x3cbf474d	0.023349429
172	0xbb09a7fd	-0.002100467
173	0xbd599a82	-0.053125866
174	0xbcbc1d6e	-0.022963252
175	0xbc840860	-0.016117275
176	0x3c36fc40	0.0111685395
177	0x3cafd0f0	0.021461934
178	0xbd298680	-0.041388035
179	0x3d1cce94	0.038282946
180	0x3ccf0bf2	0.02527425
181	0xbcaa15c4	-0.020762332
182	0x3bfd1e00	0.0077245235
183	0xbc44c227	-0.01200918
184	0x3c6c4519	0.014420771
185	0xbb20037a	-0.0024416135
186	0xbd054eeb	-0.032545965
187	0xbb6148f8	-0.0034375768
188	0xbc9cb9c2	-0.019131545
189	0x3d034838	0.032051295
190	0x3ba1c9a4	0.0049373675
191	0xbbc465f7	-0.0059936005
192	0xbba15cce	-0.0049243933
193	0xbd2a6fdc	-0.041610584
194	0xbc4b39a5	-0.01240388
195	0x3cd639ac	0.026150547
196	0xbca7c493	-0.020479476
197	0x3cb2e9f8	0.02184008
198	0xbca63e93	-0.02029351
199	0x3ad6d42a	0.0016390134
200	0x3adcec73	0.0016855135
201	0xbb396104	-0.0028286586
202	0x3c9c267c	0.01906132
203	0xbd167f95	-0.036742765
204	0x3d09e166	0.033662222
205	0x3d18033b	0.037112456
206	0x3c04ddd5	0.0081095295
207	0xbc800c54	-0.015630879
208	0xbcabd622	-0.02097613
209	0x3c2c12d0	0.010502532
210	0xba141074	-0.00056482037
211	0xbc3ad71d	-0.011403826
212	0xba47b0b3	-0.0007617578
213	0xbc8c8d50	-0.017157227
214	0xbc81e741	-0.01585734
215	0x3c13df62	0.009025427
216	0xbcac6178	-0.02104257
217	0x3c031c56	0.008002361
218	0x3c12f0b2	0.008968519
219	0xbbc80d24	-0.006105082
220	0x3c1e37e6	0.009656882
221	0x3cba45b2	0.022738311
222	0xba598732	-0.0008298039
223	0xbbfbc8b4	-0.007683838
224	0xbc822b12	-0.015889678
225	0xbc5e2c37	-0.013560346
226	0xba9d141e	-0.0011984145
227	0xbc5ea9ea	-0.013590315
228	0xbc5deca2	-0.013545187
229	0x3bce580f	0.0062971185
230	0xbb7bc88a	-0.003841909
231	0xbd105787	-0.035239723
232	0x3b511f20	0.003190942
233	0x3c9758f4	0.018475033
234	0xbcf1c4b2	-0.029512737
235	0x3beffddb	0.007323963
236	0xbb49bafc	-0.0030781617
237	0x3d3bfc2e	0.045894794
238	0x3c9b9cfd	0.018995756
239	0x3c7578bb	0.014982398
240	0x3c8610df	0.016365467
241	0x3c166ea8	0.009181656
242	0x3c36b541	0.011151613
243	0xbcca66d7	-0.024707241
244	0x3c1bd888	0.009512074
245	0xbc62c18c	-0.0138400905
246	0xbcbe7c25	-0.023252556
247	0xbd340477	-0.04394957
248	0xbc27ba7b	-0.0102373315
249	0x3c958c47	0.018255366
250	0x3c9b44fd	0.018953795
251	0x3ce7c1d4	0.028290667
252	0x3c2aba34	0.010420371
253	0x3c51a315	0.012795229
254	0x3cb1410f	0.021637468
255	0xbd05fc43	-0.03271128

_orig_mod.transformer.h.0.attn.c_proj.weight f4 [16, 16]
0	0xbc4e8d7c	-0.012606975
1	0xbc747c82	-0.014922263
2	0x3c638b99	0.013888263
3	0x3cd505a2	0.026003662
4	0xbbd06870	-0.006360106
5	0xbc28a639	-0.010293537
6	0xbc79865c	-0.015229788
7	0xbcab3936	-0.020901304
8	0xbc25ed62	-0.010127397
9	0xbc44b790	-0.012006655
10	0xba0c6e8d	-0.00053570495
11	0x3b5dccdc	0.003384403
12	0xbb954c63	-0.004556225
13	0xbd20db1d	-0.039271463
14	0x3c9bfa77	0.01904033
15	0xbc9d69c6	-0.019215476
16	0xbd15a302	-0.03653241
17	0xbcb1f232	-0.021721933
18	0x3be66010	0.0070304945
19	0xbba1319b	-0.0049192435
20	0x3c998547	0.01874031
21	0xbbddadea	-0.006765117
22	0xbabd3a3b	-0.001443691
23	0x3c3fb4e6	0.011700844
24	0x3c8c031f	0.017091332
25	0x3bf3571e	0.0074261567
26	0xbc1cfe9e	-0.00958219
27	0x3b4dddac	0.0031412644
28	0x3c72e38a	0.014824757
29	0x3c865177	0.016396267
30	0x3c956d79	0.018240677
31	0x3d14cb54	0.03632672
32	0x3b991d76	0.0046727015
33	0x3bd7ed9e	0.0065896055
34	0xbae49c75	-0.0017441647
35	0x3a2f1809	0.0006679302
36	0xbcc1f447	-0.02367605
37	0xbcd3a67c	-0.025836222
38	0x3c0d2a4f	0.008616044
39	0x3c5e953c	0.013585385
40	0x3b13be58	0.0022543874
41	0x3cc44b9e	0.023961838
42	0x3d119aef	0.035548147
43	0xbcc471dc	-0.023980074
44	0xbb9b33de	-0.0047364077
45	0x3d39a70b	0.04532532
46	0x3a91f7a9	0.001113643
47	0xbca7ad56	-0.020468395
48	0xb999b173	-0.00029314644
49	0xbcb751f7	-0.022377951
50	0xbac76135	-0.0015211465
51	0x3b8ac0ad	0.0042343945
52	0x3c5405ae	0.012940807
53	0xbcd53634	-0.026026823
54	0xbcab73de	-0.020929273
55	0x3acba17d	0.0015535798
56	0x3b2fa717	0.0026802474
57	0xbb395f99	-0.002828574
58	0x3ce6a047	0.028152598
59	0x3d1337c4	0.035941854
60	0xbca8569e	-0.020549115
61	0x3c0d31f6	0.008617869
62	0xbcaa3dc7	-0.02078141
63	0x3c2ba85d	0.010477153
64	0xbcf859f2	-0.030316327
65	0xbc1ae8c6	-0.009454912
66	0x3d238616	0.039922796
67	0xbc981a3a	-0.018567193
68	0x3b4f219d	0.0031605728
69	0xbd0e074d	-0.03467493
70	0xbcc9623b	-0.024582973
71	0x3d0d74f7	0.034535374
72	0xbca311e4	-0.019905992
73	0x3cea0985	0.028568992
74	0x3cc94de7	0.02457328
75	0x3bd0f29d	0.006376578
76	0x3c96b366	0.01839609
77	0x3c001982	0.007818582
78	0x3ba74ab9	0.005105343
79	0xbbaaeccf	-0.005216218
80	0xbc0290c9	-0.00796909
81	0xbb163b9f	-0.002292372
82	0x3c287093	0.010280746
83	0x3c95c9cb	0.018284699
84	0xbce87fd7	-0.028381271
85	0x3c310e8b	0.01080669
86	0x3c684142	0.014175715
87	0x3bfe1d9e	0.0077549955
88	0x3d2d0f9c	0.042251214
89	0x3c2910bd	0.010318932
90	0xbbecd966	-0.0072280644
91	0x3c4c80a6	0.012481844
92	0x3c8259f8	0.015912041
93	0xbd425006	-0.047439598
94	0x3bc6364f	0.0060489546
95	0x3b473329	0.0030395484
96	0x3b5f7b75	0.0034100686
97	0xb8db9b52	-0.000104716644
98	0x3d0c3356	0.034228645
99	0x3cd06073	0.025436616
100	0x3ca36642	0.019946221
101	0x3c827a81	0.015927555
102	0x3ca045af	0.019564478
103	0x3bfe9923	0.00776972
104	0xbd23032c	-0.039797947
105	0xbb62e0a6	-0.0034618764
106	0xbc49a306	-0.012306934
107	0x3c864327	0.016389443
108	0x3ce9534b	0.0284821
109	0xbd117078	-0.03550765
110	0xbba1bb94	-0.004935691
111	0xbcec1def	-0.028822867
112	0xbbbbec86	-0.005734983
113	0x3c5d20d0	0.013496593
114	0x3d3576e5	0.04430284
115	0x3b8356bb	0.004008142
116	0x3d084826	0.03327193
117	0x3cf936ef	0.030421702
118	0x3d6af53c	0.05736278
119	0xb9973fbb	-0.00028848447
120	0xbb9132f8	-0.004431125
121	0x3c3c8058	0.011505209
122	0x3c761185	0.015018825
123	0xbafea4e1	-0.00194278
124	0xbb82d61b	-0.0039928085
125	0x3add8e0c	0.0016903295
126	0x3b7b324b	0.0038329537
127	0xbcdf07c7	-0.027225388
128	0xbbb39602	-0.005480529
129	0xbccd9bb7	-0.025098665
130	0x3ba62c44	0.005071195
131	0x3b83f5d3	0.0040271073
132	0x3b8f26af	0.004368625
133	0x3b861fcf	0.0040931473
134	0xbac59b4f	-0.0015076193
135	0x3cac5b73	0.0210397
136	0x3ccca98b	0.024983188
137	0xbb83d124	-0.0040227342
138	0xbb2fc31c	-0.0026819175
139	0x3cf332d5	0.029687325
140	0xbd18b572	-0.037282415
141	0xbc9250bd	-0.017860765
142	0x3c88d711	0.016704114
143	0x3ccb6478	0.02482818
144	0xbc1d82b9	-0.009613686
145	0x3bd99461	0.0066400026
146	0xbc5f43e7	-0.013627029
147	0x3d034a14	0.03205307
148	0xbc9e5305	-0.019326696
149	0x3d099558	0.03358969
150	0xbc8af505	-0.016962538
151	0x3a0a18c3	0.0005267972
152	0xbc7e4ea7	-0.015521682
153	0x3b88fb49	0.004180346
154	0x3c2c6fd4	0.010524709
155	0xbc04b6d0	-0.0081002265
156	0x3cef46c2	0.029208545
157	0xbd16571a	-0.03670416
158	0x3c9363f0	0.01799199
159	0x3b102ccb	0.0021999355
160	0xbc8b9f1f	-0.017043648
161	0x3c2a0a24	0.010378394
162	0xbbaddce7	-0.0053058746
163	0x3cf1c4c7	0.029512776
164	0x3c24bc41	0.010054649
165	0xbc209951	-0.0098021785
166	0x3c76db7b	0.015066977
167	0x3cc11fee	0.023574796
168	0x3ca64aad	0.02029928
169	0xbbf5e4e1	-0.007504091
170	0x3c545106	0.012958771
171	0x3c6d46c9	0.0144822085
172	0x3b2d3b99	0.0026433228
173	0xbcc81200	-0.024422646
174	0xbd05f332	-0.032702632
175	0xbcaced67	-0.021109296
176	0x3c397da6	0.011321461
177	0xbcca06de	-0.024661478
178	0xbc5f0f4f	-0.01361449
179	0x3c6ddd23	0.014518055
180	0xbc0ce888	-0.008600362
181	0xbcad6c33	-0.021169757
182	0xbbaabec1	-0.005210728
183	0x3ca76f16	0.020438712
184	0x3bc47172	0.005994969
185	0x3d78a4d0	0.060704052
186	0x3a82a309	0.0009966801
187	0xbb8b3144	-0.0042478163
188	0xbc50e30b	-0.012749444
189	0x3c4ca229	0.012489834
190	0xbcc25d1e	-0.023726042
191	0x3cc16299	0.023606585
192	0x3c7ba638	0.015359454
193	0x3bcc8c5c	0.006242318
194	0xbc3dfcc7	-0.011595911
195	0xbc3ca0fe	-0.011512993
196	0x3c270154	0.010193188
197	0x3c815dfc	0.015791886
198	0x3c4e54a0	0.012593418
199	0x3c06adc2	0.008220138
200	0xb9177544	-0.00014444167
201	0x3ca36da3	0.01994974
202	0x3cd03230	0.025414556
203	0xbc88d384	-0.016702421
204	0x3c17a126	0.009254729
205	0x3c1ba692	0.009500163
206	0x3bf265a7	0.007397372
207	0x3d18beda	0.037291385
208	0xbca0a7f0	-0.019611329
209	0x3c3d0235	0.011536171
210	0x3af4cbd7	0.0018676472
211	0xbd064399	-0.03277931
212	0x3c150b4e	0.0090969335
213	0x3ba0c5fb	0.0049064136
214	0x3b9d7c0f	0.0048060487
215	0x3cfa0237	0.030518634
216	0xbcd49b2b	-0.025952896
217	0x39709dd4	0.00022946979
218	0x3c698a98	0.014254235
219	0xbc8bbe12	-0.017058406
220	0x3c02b51f	0.007977753
221	0xbc0665f4	-0.008203018
222	0x3c4656aa	0.012105623
223	0xbcb4ae50	-0.022055775
224	0x3c63dc44	0.013907496
225	0xbc9cea21	-0.01915461
226	0x3c8a17ef	0.016857116
227	0xbcf2943b	-0.029611697
228	0xbd04f392	-0.03245885
229	0x3d18b5f2	0.03728289
230	0xbb9274b7	-0.00446948
231	0xbcc6136a	-0.02417918
232	0x3b400461	0.0029299485
233	0xbb775120	-0.0037737563
234	0xbcae506f	-0.021278588
235	0x3c74dcf9	0.014945262
236	0xbc5fd0fe	-0.013660667
237	0xbd06d800	-0.032920837
238	0xbc28260b	-0.010262976
239	0x3cda809d	0.026672656
240	0x3907ba85	0.00012944087
241	0xbbe82133	-0.007084036
242	0xbd139f5b	-0.036040645
243	0x3d04c812	0.032417364
244	0x3cebda33	0.028790569
245	0xbba91046	-0.0051594106
246	0xbc87d942	-0.016583089
247	0x3c39ba30	0.011335894
248	0x3ce6fe15	0.028197328
249	0xbc51b3e9	-0.012799242
250	0x3c958d93	0.018255984
251	0x3c157469	0.009121993
252	0x39570c24	0.0002050852
253	0x3baebff9	0.0053329435
254	0xbc935bd3	-0.017988121
255	0x3c69c77c	0.014268752

_orig_mod.transformer.h.0.ln_2.weight f4 [16]
0	0x00000000	0.0
1	0x00000000	0.0
2	0x00000000	0.0
3	0x00000000	0.0
4	0x00000000	0.0
5	0x00000000	0.0
6	0x00000000	0.0
7	0x00000000	0.0
8	0x00000000	0.0
9	0x00000000	0.0
10	0x00000000	0.0
11	0x00000000	0.0
12	0x00000000	0.0
13	0x00000000	0.0
14	0x00000000	0.0
15	0x00000000	0.0

_orig_mod.transformer.h.0.mlp.c_fc.weight f4 [64, 16]
0	0xba822e62	-0.0009932036
1	0xbca9c03e	-0.020721551
2	0xbd0340df	-0.032044288
3	0xbd210eb7	-0.039320674
4	0xbc234d52	-0.009967165
5	0x3cc73ee1	0.024321975
6	0x3c7978db	0.015226568
7	0x3ce222cb	0.027604481
8	0xbbc109bd	-0.0058910535
9	0xbd14397f	-0.036187645
10	0xbc84d524	-0.016214915
11	0xbb951e64	-0.004550742
12	0x3ca06d6b	0.019583425
13	0x3c958822	0.01825339
14	0x3ca0d1db	0.019631317
15	0x3b09d9ff	0.0021034477
16	0x3c939012	0.018013034
17	0xbd292b8f	-0.041301306
18	0xbc853f5d	-0.016265566
19	0x3bf5757e	0.007490813
20	0xbbf05f6f	-0.0073355953
21	0x3c5f38cf	0.013624384
22	0x3d4eb5d5	0.050466377
23	0xbc39f620	-0.011350185
24	0x3cff3009	0.031150835
25	0x3bd232d4	0.0064147506
26	0x3c3b7afe	0.011442898
27	0xbd243457	-0.040088978
28	0xbc95a75b	-0.018268278
29	0x3c202dd5	0.009776552
30	0xbcb1ccaf	-0.021704046
31	0x3c99fece	0.018798258
32	0x3d23020b	0.03979687
33	0xbc1a0635	-0.009400894
34	0xbc7fbb32	-0.015608596
35	0x3d10cf94	0.035354212
36	0xbcb88577	-0.022524578
37	0x3c09aadb	0.0084025515
38	0xbc03be3f	-0.008040964
39	0x3c525eb2	0.01283996
40	0x3c036ff1	0.008022294
41	0xbcb8f40e	-0.022577312
42	0xbc0f4e54	-0.008746702
43	0x3ce5193d	0.027966136
44	0x3b88e13f	0.004177242
45	0x3a1812c9	0.0005801139
46	0xbc8f2807	-0.017475141
47	0xbb1f1682	-0.002427489
48	0x3d154fb2	0.036452956
49	0x3c930d17	0.017950578
50	0x3c5f61b0	0.01363413
51	0xbb97c2b7	-0.004631366
52	0x3c2cb792	0.010541813
53	0xbc3432e2	-0.0109984595
54	0xbc62c5b7	-0.013841084
55	0xbbe12a60	-0.0068715066
56	0xbbda9761	-0.006670878
57	0xbba1df9d	-0.004939987
58	0x3c804434	0.015657522
59	0x3c3c2b18	0.011484884
60	0xbc4ac173	-0.012375223
61	0xbae6402b	-0.0017566731
62	0xbcbce733	-0.023059463
63	0x3cba8dd7	0.022772713
64	0xbce31885	-0.027721653
65	0xbb5fdac7	-0.00341575
66	0x3cc7dd35	0.024397472
67	0xbc59eb7d	-0.013300774
68	0x3a8be70e	0.0010673718
69	0xbd122c00	-0.035686493
70	0xbc919827	-0.017772747
71	0xbd16f55d	-0.03685509
72	0xbc26b019	-0.010173821
73	0x3d1a68dd	0.03769766
74	0x3c933403	0.017969137
75	0xbc97badf	-0.018521724
76	0x3d2e926d	0.04262011
77	0xbc91cf86	-0.01779915
78	0xbb77ec93	-0.0037830218
79	0xbbab34b3	-0.005224788
80	0x3bc93169	0.0061399234
81	0xbc0d76c9	-0.008634278
82	0xbd11e210	-0.03561598
83	0xbbd93b3b	-0.0066293753
84	0x3bf46854	0.007458726
85	0x3c99c1d2	0.018769179
86	0x3a4dd2d4	0.0007851545
87	0xbcd70f15	-0.026252309
88	0xbce2a9c1	-0.027668836
89	0x3ce02e50	0.027365834
90	0x3c58d545	0.013234441
91	0x3b19d724	0.002347418
92	0x3c2a202a	0.010383645
93	0xbc652cc7	-0.0139877265
94	0x3c405acb	0.011740397
95	0x3c3a55a6	0.011372959
96	0xbc734394	-0.014847655
97	0xbc3517e4	-0.011053059
98	0xbb6a3217	-0.0035735422
99	0x3bc7e1b4	0.006099904
100	0x3d05a798	0.032630533
101	0xbbcc5835	-0.006236101
102	0x3cc81585	0.024424324
103	0x3d629cfd	0.055325497
104	0x3b868ac0	0.0041058958
105	0x3c2eeba4	0.010676298
106	0x3cb98fcd	0.022651577
107	0x3bae6c73	0.0053229867
108	0xbcb15199	-0.021645354
109	0x3a8a75f6	0.001056372
110	0x3c215818	0.009847663
111	0xbbb949e9	-0.0056545627
112	0x3d04eec1	0.032454256
113	0x3c354b07	0.011065251
114	0xbb9e6feb	-0.004835119
115	0xbad9f4fc	-0.0016628797
116	0xbc9c5cbc	-0.019087188
117	0xbc10aa5e	-0.008829681
118	0x3c830480	0.015993357
119	0x3d463ecf	0.048399743
120	0x3d20ffd6	0.039306484
121	0xbbcf58ac	-0.006327709
122	0xbad0eddc	-0.0015940028
123	0xbc19b544	-0.009381596
124	0xbbda4498	-0.006661009
125	0xbd0eb1a6	-0.034837388
126	0xbbd8b519	-0.0066133854
127	0x3d32cff2	0.043655343
128	0x3b342fad	0.0027494237
129	0xbb9abd17	-0.0047222483
130	0x3cc2118b	0.023690006
131	0x3b885a74	0.0041611735
132	0xbcb9b4bb	-0.022669187
133	0x3c3503c5	0.011048262
134	0xbc854f26	-0.016273092
135	0x3c8fae79	0.01753925
136	0xbd3a9dd0	-0.045560658
137	0x3c74383e	0.014905987
138	0xbc24f0f8	-0.010067217
139	0xbc5ec430	-0.013596579
140	0xbc0c73f7	-0.00857257
141	0x3c75f955	0.015013059
142	0x3c61d01e	0.013782529
143	0x3c542574	0.012948383
144	0xbbc1b91c	-0.0059119593
145	0xbcbad5cf	-0.02280703
146	0x3b1eb337	0.0024215707
147	0xbd0b5e6f	-0.034025606
148	0xbc8bacf6	-0.017050248
149	0xbd114a1b	-0.035471063
150	0xbc5a4d65	-0.013324116
151	0xbc26f85e	-0.010191051
152	0x3cb7dbe4	0.02244372
153	0x3c6fccf3	0.014636266
154	0x3cd10dc1	0.025519254
155	0x3cd132b0	0.025536865
156	0x3c056dd2	0.008143859
157	0x3c6d0fa3	0.01446906
158	0xba47ef52	-0.0007626909
159	0x3c8dd156	0.017311733
160	0x3cb8aa39	0.022542106
161	0xbced21ec	-0.02894684
162	0x3d0724d6	0.032994114
163	0xbd5b142e	-0.05348604
164	0x3c686a6a	0.014185527
165	0x3bae6913	0.0053225844
166	0x39c986cb	0.00038438136
167	0xbbece502	-0.0072294483
168	0x3b822cd7	0.0039726305
169	0xbbebd06a	-0.0071964758
170	0x3c0ea124	0.008705411
171	0x3d49e510	0.049290717
172	0xbbb16cf6	-0.0054146005
173	0xbcaa5b6d	-0.020795548
174	0xbaacb4fd	-0.0013176497
175	0xbb8603f5	-0.004089827
176	0xbb556dbc	-0.0032566627
177	0xbce92c23	-0.028463429
178	0xbc96b5f2	-0.018397305
179	0xbd25b4ed	-0.040455747
180	0xbc2c2542	-0.01050693
181	0xbb902232	-0.0043986076
182	0x3c283db2	0.010268616
183	0x3c32f634	0.010922957
184	0xbc4e2419	-0.012581849
185	0xbc4d44fd	-0.012528655
186	0x3cae3917	0.021267457
187	0x3b3f9a7c	0.0029236367
188	0x3c8f9a3e	0.017529603
189	0x3c0b7940	0.008512795
190	0x3c6aafea	0.014324168
191	0xbb07847c	-0.0020678332
192	0xbb7b5482	-0.003834993
193	0x3c440d0d	0.011966002
194	0x3ba62678	0.005070504
195	0x3c606213	0.013695258
196	0x3c19b7d7	0.00938221
197	0xbc9b018a	-0.018921632
198	0xbcbbab47	-0.02290882
199	0xbca67416	-0.020319026
200	0xbce35b14	-0.02775339
201	0x3a4dcf38	0.00078510074
202	0x3c4b1ca2	0.012396963
203	0x3ccc9749	0.024974482
204	0x3b4a9a1b	0.0030914608
205	0x3c496810	0.012292877
206	0xba8a88d6	-0.0010569345
207	0x3c9c3fc7	0.01907338
208	0x3c921132	0.017830465
209	0x3b67b9bc	0.003535851
210	0xbcc0a459	-0.023515867
211	0xbc77d44e	-0.015126301
212	0xbca5781d	-0.020198876
213	0xbd0a8d99	-0.033826444
214	0xbd03ea9c	-0.032206163
215	0x3d18f114	0.037339285
216	0xbd187cd2	-0.037228413
217	0xbd0490c4	-0.03236462
218	0xbcd564a6	-0.02604897
219	0xbbc694fd	-0.0060602413
220	0xbd38c15c	-0.045106277
221	0x3cd1012a	0.02551325
222	0x3cc245ce	0.023714926
223	0xbb76174b	-0.0037550505
224	0x3c3fa6e2	0.011697503
225	0x3c79c4d8	0.015244685
226	0x3cd98894	0.026554383
227	0xbbb8e5ca	-0.0056426274
228	0xbbe0be55	-0.006858627
229	0x3b695eb2	0.0035609421
230	0xbaaef0c1	-0.0013346897
231	0x3cb8ee1d	0.022574479
232	0xbceb18f7	-0.028698428
233	0x3ad07054	0.0015902617
234	0x3c7833a6	0.015149033
235	0x3c844a4a	0.016148705
236	0xbcb8cec4	-0.022559531
237	0x3d22344a	0.039600648
238	0x39fbd4a9	0.00048032895
239	0x3b58047e	0.0032961662
240	0xbc8c17b1	-0.01710114
241	0xbd1a4e21	-0.037672166
242	0x3beabb80	0.007163465
243	0xbd149ac7	-0.03628042
244	0x3cd6d537	0.026224716
245	0x3c08e539	0.008355432
246	0x3b62113b	0.0034495133
247	0xbc6661f7	-0.014061443
248	0xbc2397c7	-0.009984917
249	0x3bc59c5d	0.006030603
250	0xbb512acc	-0.0031916378
251	0xbc1fee90	-0.009761468
252	0xbc0e49db	-0.008684601
253	0xbd18baa7	-0.03728738
254	0xbc9dbcc9	-0.019255059
255	0xbc957544	-0.018244393

_orig_mod.transformer.h.0.mlp.c_proj.weight f4 [16, 64]
0	0x3c9e1ab0	0.019299835
1	0xbc8a2cbe	-0.016867038
2	0x3bfc524e	0.007700241
3	0x3cacf90f	0.021114854
4	0x3bc16032	0.00590136
5	0xbbeabbb5	-0.0071634897
6	0x3c812ea8	0.015769318
7	0x3c9228df	0.017841754
8	0xbc1c7712	-0.009549873
9	0xbcb2ac7c	-0.021810763
10	0x3c5c1701	0.013433219
11	0x3cc84405	0.024446497
12	0x3b3a3054	0.0028410153
13	0xbbb360a9	-0.0054741693
14	0x3c128d78	0.008944862
15	0xbbc3e55b	-0.005978269
16	0x3cd7f915	0.026363889
17	0xbc17b9de	-0.009260623
18	0x3be1207c	0.0068703275
19	0xbd1f83d2	-0.038944073
20	0xbb260222	-0.002533086
21	0x3cbf893d	0.02338087
22	0x3d090dc4	0.033460394
23	0x3c491992	0.012274163
24	0xbb251c19	-0.002519375
25	0x3c468d30	0.012118623
26	0xbd0cba32	-0.034357257
27	0xbbbd268b	-0.005772417
28	0x3c52f0a1	0.012874753
29	0x3b129b26	0.0022370308
30	0x3b0efde4	0.002181881
31	0xbb6241ab	-0.0034524004
32	0xbc494309	-0.012284049
33	0x3c1a4b6c	0.009417396
34	0x3c080422	0.008301767
35	0xbc3a8790	-0.01138486
36	0x3c90f4a7	0.017694784
37	0x3c9dfc1d	0.019285256
38	0xbb305fbb	-0.0026912529
39	0x3d41f9fe	0.04735755
40	0xbd0861ab	-0.03329627
41	0xb7b09122	-2.1048418e-05
42	0xbc463bef	-0.01209925
43	0xbc263445	-0.010144298
44	0x3c4a4489	0.012345442
45	0xbb9f9ebb	-0.004871217
46	0x3ce64765	0.028110215
47	0xbcc1cd81	-0.023657562
48	0xbc04d37f	-0.008107065
49	0x3bbe0187	0.005798522
50	0x3c414940	0.011797249
51	0x3b63327d	0.0034667545
52	0x3a804def	0.0009788851
53	0x3bf330fe	0.007421612
54	0xbcf86672	-0.030322287
55	0xbc42df01	-0.011893989
56	0x3c7c4437	0.015397123
57	0x3c72e59d	0.014825252
58	0xbb5abd22	-0.0033376892
59	0x3c31a3d3	0.010842281
60	0xbc8c6693	-0.017138755
61	0x3a982802	0.0011608603
62	0x3c59beef	0.013290151
63	0x3c8dadc0	0.017294765
64	0xbca86eef	-0.02056071
65	0x3cb706d4	0.022342123
66	0x3c35090e	0.011049522
67	0xbd0c91d6	-0.034318767
68	0x3bac4e7b	0.005258379
69	0x3abbd0bd	0.0014329177
70	0xbcdd3c2a	-0.027006228
71	0xbc3e09ae	-0.0115989875
72	0xbc92a317	-0.017900033
73	0xbc9a0993	-0.018803393
74	0x3b15413b	0.0022774476
75	0x3bc4f480	0.006010592
76	0xbc4afa24	-0.01238874
77	0xbc03ebcc	-0.008051824
78	0x3cdefff5	0.02722166
79	0xbc5282fc	-0.012848612
80	0x3c4f6cc7	0.012660212
81	0xbc1e9e8a	-0.009681353
82	0xb83a515d	-4.442163e-05
83	0xbc8402a2	-0.016114537
84	0xbc85baba	-0.01632439
85	0xbcf696c5	-0.03010119
86	0xbcbde130	-0.023178667
87	0x3c1f2f42	0.009715857
88	0xbb7a3f0f	-0.0038184559
89	0xbb3083a6	-0.0026933937
90	0xbd2e2ced	-0.042523313
91	0xbc3c81d9	-0.0115055675
92	0x3c826b9e	0.015920456
93	0x3bb6cd02	0.005578638
94	0x3c04a89d	0.008096841
95	0xbaab23de	-0.0013056954
96	0xbc2712b8	-0.010197334
97	0x3ca39599	0.019968795
98	0x3d23fec0	0.04003787
99	0x3ca7f8f6	0.020504456
100	0x3cac88dc	0.021061353
101	0xbd162ec9	-0.03666571
102	0xbc5dc1cc	-0.013534974
103	0x3d07012f	0.032960113
104	0xb9b81972	-0.00035114173
105	0x3c260297	0.010132453
106	0xbb440e5c	-0.0029915785
107	0xbbbef314	-0.005827317
108	0xbac6b0d5	-0.0015158901
109	0xba01e41f	-0.0004954952
110	0x3b3f6cc6	0.002920912
111	0xbaeb327c	-0.0017944123
112	0xbc5f1520	-0.013615876
113	0x3cd077a9	0.025447683
114	0xbc0b35df	-0.008496731
115	0xbcb3ed8d	-0.021963859
116	0x3bdb6f58	0.006696623
117	0xbbccd4f3	-0.0062509715
118	0x3ccb36b4	0.024806358
119	0xbd222604	-0.039587036
120	0xbb07c214	-0.0020715045
121	0x3c884323	0.016633576
122	0xbc5f7898	-0.013639592
123	0x3c224ace	0.00990553
124	0xbb9d5550	-0.00480143
125	0xbbfda71e	-0.007740869
126	0x3ca73fa5	0.02041609
127	0x3ca60664	0.02026672
128	0x3c223527	0.009900368
129	0xbbda3ffd	-0.00666046
130	0xbc45a12e	-0.012062354
131	0x3c51e421	0.012810738
132	0xbd40ff7e	-0.047118656
133	0x3c8e200e	0.01734927
134	0x3c0fc5d9	0.008775198
135	0x3ce98907	0.028507723
136	0x3d2ebac0	0.042658567
137	0xbc9b411d	-0.018951947
138	0xbd0e704b	-0.03477506
139	0xbc8e1e77	-0.017348511
140	0xbc74c959	-0.014940583
141	0xbb852341	-0.0040630405
142	0x3b699259	0.0035640209
143	0xbcaa4896	-0.020786565
144	0xbb9d04c5	-0.0047918283
145	0x3c1bec09	0.009516724
146	0xbbc3e50b	-0.005978232
147	0xbd5cf1f2	-0.053941675
148	0xbbafb365	-0.0053619617
149	0x3bb20925	0.005433219
150	0x3c885117	0.01664023
151	0xbd18cf82	-0.03730727
152	0x3c1b476b	0.009477477
153	0xbb1430c5	-0.0022612077
154	0xbb3503ee	-0.002762075
155	0xbcaa8dae	-0.020819511
156	0x3cc8e6a0	0.024524033
157	0x3d413ab5	0.047175128
158	0xbd13b639	-0.036062453
159	0x3c0d3348	0.008618183
160	0xbbef0d37	-0.0072952765
161	0xbc5958f8	-0.013265841
162	0x3c5c2ea7	0.013438857
163	0x3cbda797	0.023151202
164	0xbc337617	-0.010953448
165	0xbaf2aad9	-0.0018514051
166	0xbbe6284b	-0.0070238463
167	0x3a87eac0	0.0010369644
168	0xbc9eb80d	-0.019374872
169	0xbc1c54f2	-0.009541737
170	0x3bda1f32	0.006656551
171	0xbcc06247	-0.023484362
172	0x3cbbe599	0.02293663
173	0x3cbf1bea	0.02332874
174	0xbb2dc5f8	-0.0026515704
175	0xbcb97c79	-0.022642361
176	0xbcd40b6b	-0.02588435
177	0x3b3a6c30	0.0028445832
178	0x3cb81538	0.022471055
179	0xbabe6c07	-0.0014528044
180	0xbc6b745d	-0.014371005
181	0x3b929ff3	0.004474634
182	0xbc2ed285	-0.010670309
183	0xbcb67393	-0.022271907
184	0xbbcbf779	-0.0062245694
185	0x3c2d34de	0.010571687
186	0x3cc05dd8	0.023482248
187	0xbc8446c4	-0.016147025
188	0xbccf3d72	-0.025297854
189	0xbcc1679b	-0.023608973
190	0x3c8e0b7c	0.01733946
191	0xbc546a32	-0.012964772
192	0xbd287a94	-0.041132525
193	0xb8db57f2	-0.00010459115
194	0xbb456cb4	-0.0030124607
195	0xbc8cd3d6	-0.017190855
196	0xb9b229fe	-0.00033982092
197	0xbcb505aa	-0.022097427
198	0x3c1bd19f	0.009510427
199	0xbd087a8c	-0.033319995
200	0x3cc0b913	0.02352575
201	0xbc2a34d3	-0.010388571
202	0x3cdbe72e	0.026843634
203	0x3c281e6a	0.0102611575
204	0xbd0a6678	-0.033789128
205	0x3b627119	0.0034552275
206	0xbc7d5817	-0.015462897
207	0xbc616e77	-0.013759247
208	0x3d026cfb	0.031842213
209	0xbc3455d2	-0.011006789
210	0x3d0aba6a	0.033869185
211	0x3c5db39b	0.013531591
212	0x3c5b2fcc	0.013378095
213	0xbc417fd9	-0.011810266
214	0xbc37104b	-0.011173318
215	0x3af4ad05	0.0018667286
216	0x3ccd6289	0.0250714
217	0x3948b3db	0.00019140488
218	0xbd0ad06a	-0.033890165
219	0x3b8f1b2e	0.0043672537
220	0x3c8ee527	0.017443253
221	0xbbaa79b9	-0.0052024988
222	0xbb3dfa4e	-0.0028988305
223	0xbb5a34cb	-0.0033295627
224	0x3c8f7db0	0.017515987
225	0xbc212046	-0.009834355
226	0xbb9b38f9	-0.0047370163
227	0xba3ed658	-0.00072798645
228	0x3c93f2d4	0.018060125
229	0x3c836724	0.016040392
230	0xbc8abbcd	-0.016935254
231	0xbbf8e9a1	-0.00759621
232	0xbd034d89	-0.032056365
233	0x3d592aa4	0.05301918
234	0xbcbc8e44	-0.023017056
235	0xbcaa7234	-0.02080641
236	0xbbde4345	-0.0067829215
237	0x3c16a52b	0.009194653
238	0x3b890ffa	0.0041828128
239	0x3c867e77	0.016417725
240	0x3c2559ca	0.010092208
241	0xbbb3225d	-0.005466743
242	0x3a0dba59	0.0005406491
243	0x3c616be4	0.013758633
244	0xbd067333	-0.032824706
245	0xbc5e8365	-0.013581132
246	0xbc1ffb46	-0.009764498
247	0x3c910db4	0.01770673
248	0x3b6abacf	0.0035816913
249	0x3c64ba13	0.013960379
250	0x3b8b2266	0.004246044
251	0x3d47cc41	0.048778776
252	0x3d242e98	0.040083498
253	0xbcf23165	-0.029564569
254	0x3b8c31e6	0.0042784093
255	0xbc48a554	-0.012246449

_orig_mod.transformer.h.1.ln_1.weight f4 [16]
0	0x00000000	0.0
1	0x00000000	0.0
2	0x00000000	0.0
3	0x00000000	0.0
4	0x00000000	0.0
5	0x00000000	0.0
6	0x00000000	0.0
7	0x00000000	0.0
8	0x00000000	0.0
9	0x00000000	0.0
10	0x00000000	0.0
11	0x00000000	0.0
12	0x00000000	0.0
13	0x00000000	0.0
14	0x00000000	0.0
15	0x00000000	0.0

_orig_mod.transformer.h.1.attn.c_attn.weight f4 [48, 16]
0	0x3d0c499c	0.034249887
1	0x3c1da13a	0.009620959
2	0xbc4f5ed0	-0.012656882
3	0xba9b55bf	-0.0011851116
4	0xbb871d9d	-0.004123403
5	0xbb9ed3cf	-0.004847027
6	0x3c0930c8	0.008373447
7	0x3c3cfdad	0.01153509
8	0x3d0e27e2	0.034706004
9	0xbc7c5fa9	-0.0154036665
10	0xbcc4acf7	-0.024008257
11	0x3c822e40	0.015891194
12	0xbbc33317	-0.005957018
13	0xbb77895c	-0.0037771082
14	0x3c8c5321	0.017129483
15	0xbcaf5467	-0.02140255
16	0x3c74abd7	0.014933548
17	0xbb3b81ed	-0.0028611377
18	0xbc384cbe	-0.0112487655
19	0x3ac479bb	0.0014989892
20	0xbc1954d8	-0.009358607
21	0x3b2b9ea9	0.0026187098
22	0x3cbb5e49	0.022872107
23	0xbd05b8af	-0.03264683
24	0x3ca219d7	0.019787712
25	0xbbdf5557	-0.006815593
26	0x3b87548f	0.004129953
27	0xbbeda521	-0.007252351
28	0x3b67e397	0.0035383457
29	0xbbfd21a0	-0.0077249557
30	0x3a2e4429	0.000664773
31	0xbb9358f7	-0.0044966894
32	0xba22b4cf	-0.0006206752
33	0x3b655746	0.0034994646
34	0xbc0eac92	-0.008708136
35	0x3bb94ce2	0.005654917
36	0x3c8d7b19	0.017270612
37	0xbc2b7b59	-0.01046642
38	0x3c357f8a	0.011077771
39	0x3c798de3	0.015231582
40	0x3ca059a6	0.019573998
41	0x3c82cd1b	0.015966943
42	0xbbc3d1e9	-0.005975951
43	0x3c0b91ad	0.0085186185
44	0xbc1d94ac	-0.009617966
45	0xbc066e15	-0.008204957
46	0x3c71a9a9	0.014749923
47	0xbbe44393	-0.0069660633
48	0xbc845126	-0.016151976
49	0x3c38dd2e	0.011283202
50	0x3b517969	0.0031963235
51	0xbcf1132f	-0.029428093
52	0xbcdcc8f2	-0.026951287
53	0xbc80a551	-0.015703829
54	0xbc00cf4c	-0.007861923
55	0xbc236af4	-0.00997423
56	0x3d0684d9	0.032841537
57	0xbc92e4f2	-0.017931435
58	0xbc94b90f	-0.018154649
59	0xbb5825a1	-0.0032981413
60	0x3bb3b566	0.005484271
61	0x3d07821a	0.03308306
62	0x3ce89ebc	0.028396003
63	0x3baeb3c6	0.0053314893
64	0x3aae5196	0.0013299461
65	0x3bf5179e	0.007479622
66	0xbc36b5c0	-0.011151731
67	0xbc78c0f5	-0.015182723
68	0xbbf3cf07	-0.007440451
69	0x3c42f695	0.01189961
70	0x3bc641e9	0.0060503376
71	0x3b0b2091	0.0021229128
72	0xbbc6d6a9	-0.00606807
73	0x3c792b81	0.015208126
74	0x3d2db8a9	0.042412434
75	0x3d3e2407	0.046421077
76	0xbc0e25f2	-0.008676039
77	0xbc245078	-0.010028951
78	0xbc4e1ac7	-0.012579626
79	0xbbbb9525	-0.0057245665
80	0xbc428884	-0.011873368
81	0x3b9988a2	0.0046854774
82	0x3d018d34	0.031628802
83	0x3c4a7d5b	0.012358989
84	0x3ac1c4fc	0.0014783437
85	0x3c91b77c	0.017787687
86	0xbb5764ee	-0.0032866555
87	0x3c217e38	0.009856753
88	0x3a5cbc10	0.00084203575
89	0xbcb66b7d	-0.022268051
90	0xbb37d939	-0.0028053059
91	0xbc40e7a0	-0.011773974
92	0x3ab984e5	0.0014153986
93	0xbcc61d6f	-0.024183957
94	0xbd525954	-0.05135472
95	0x3cf6dc0e	0.030134227
96	0x3c37890e	0.01120211
97	0x3ca7a1ad	0.020462835
98	0x3cfd8ee9	0.030951934
99	0x3cba509d	0.022743518
100	0xbaa11b8b	-0.0012291534
101	0x3cc80def	0.024420707
102	0x3c7e504f	0.015522077
103	0x3ba9f964	0.0051872004
104	0x3c073817	0.008253119
105	0xbaae5b3b	-0.0013302335
106	0x3c767de9	0.015044668
107	0x3d03d760	0.03218782
108	0xbbdd90b8	-0.0067616366
109	0xbc7f3f5e	-0.015579073
110	0xbda33142	-0.079683796
111	0xbce9fa81	-0.028561832
112	0x3cac8234	0.02105818
113	0xbc9e69e6	-0.019337606
114	0xbbb54aeb	-0.0055326126
115	0x3c3baa26	0.011454141
116	0xbc2bfd8d	-0.010497463
117	0xbc5e9b2b	-0.0135868
118	0xbcd59429	-0.026071625
119	0xbb414c90	-0.0029495098
120	0xbcbb77ad	-0.022884214
121	0x3cb9a8a1	0.022663416
122	0xbb4d2077	-0.0031299868
123	0x3d0b3201	0.033983234
124	0x3c34b175	0.011028637
125	0xbc8e7ddf	-0.017394004
126	0x3bf84c98	0.00757749
127	0x3ca63070	0.020286769
128	0xbd01e46d	-0.031711984
129	0xbb07f00b	-0.0020742442
130	0x3c9e3468	0.019312099
131	0x3d230b07	0.03980544
132	0xbbb2ef78	-0.005460676
133	0x3c2d0918	0.01056125
134	0xbc9b24c9	-0.018938439
135	0xbc3852ee	-0.011250241
136	0x3aa5eb62	0.001265865
137	0x3bcb10bd	0.0061970637
138	0x3bb36d1b	0.005475653
139	0xbd5a8bae	-0.053355865
140	0xbc896250	-0.016770512
141	0xbc67e9f5	-0.014154901
142	0xbc2b71e4	-0.010464165
143	0x3c84e1c7	0.01622094
144	0xbc11e0ad	-0.008903665
145	0x3c238cb4	0.009982277
146	0x3c405f77	0.011741511
147	0x3d1ea50d	0.038731623
148	0x3a002b39	0.0004889253
149	0x3c05b6bd	0.008161244
150	0x3b8674e4	0.00410329
151	0xbbdc3e21	-0.0067212735
152	0xbc8a96cf	-0.016917614
153	0x3d060396	0.032718264
154	0x3cac4cc9	0.021032708
155	0xbbddba05	-0.00676656
156	0xbc2dd485	-0.010609751
157	0xbb8f8b10	-0.004380591
158	0xbc4408e2	-0.011965008
159	0x3bcb576d	0.0062054903
160	0x3a4b2417	0.0007749213
161	0x3cc1bafe	0.023648735
162	0x3d32f29d	0.043688405
163	0xbc2ff0f3	-0.010738599
164	0x3c354bfe	0.011065481
165	0x3d4a5aa2	0.04940284
166	0x3c324599	0.010880851
167	0xbbbbcfbd	-0.0057315514
168	0x3cd7be29	0.026335793
169	0x3d900030	0.07031286
170	0x3c0b4ba6	0.008501923
171	0x3bac9309	0.0052665514
172	0xbc95937b	-0.0182588
173	0xbc10f7dd	-0.008848158
174	0xbc9b36d4	-0.018947043
175	0x3c867930	0.016415209
176	0xbc82bcf1	-0.015959235
177	0xbc1d0d59	-0.009585702
178	0xbb1a507f	-0.0023546515
179	0x3d1da0a9	0.038483296
180	0x3c8babeb	0.01704975
181	0xbc542506	-0.01294828
182	0xbc8cae0b	-0.017172834
183	0xbbc13d1d	-0.005897178
184	0x3c3c350e	0.011487259
185	0xbc86bdef	-0.01644799
186	0x3c549e09	0.012977132
187	0xbcbdbc70	-0.023161143
188	0xbd0eca7e	-0.03486108
189	0x3bfab7c1	0.0076512997
190	0x3b6a26fb	0.00357288
191	0x3b613f67	0.0034370066
192	0xbc16b112	-0.00919749
193	0x3cbb9f90	0.022903234
194	0x3ba6e1db	0.005092842
195	0x3c869c9f	0.016432105
196	0x396f3340	0.00022811908
197	0x3d007e30	0.03137034
198	0xbd20e5ad	-0.039281536
199	0xbd5a1ff2	-0.05325312
200	0xbcacc77d	-0.021091217
201	0x3cebd098	0.028785989
202	0x3c2315a7	0.009953893
203	0x3ce63ec0	0.028106093
204	0x3aa36b3d	0.0012467873
205	0x3c2f5a17	0.010702631
206	0xbbd315d4	-0.006441811
207	0xba5204e7	-0.0008011595
208	0x3cddbb13	0.027066743
209	0x3bbb35d5	0.0057132044
210	0x3ba0c842	0.004906685
211	0x3aa01b30	0.0012215134
212	0xbc759b83	-0.01499069
213	0x3ba916a6	0.0051601706
214	0x3b7ed495	0.0038884033
215	0x3d10dc42	0.035366304
216	0x3c181ac6	0.009283727
217	0x3bbf7b90	0.005843587
218	0x3c87b27f	0.016564606
219	0xb8265707	-3.9658535e-05
220	0xbd63f954	-0.0556577
221	0xbc4197b9	-0.011815959
222	0x3be4856c	0.006973913
223	0x3cfb2b09	0.03066017
224	0xbc69b66a	-0.014264682
225	0xb9fd3f52	-0.00048303098
226	0xbc52d2c0	-0.0128676295
227	0x3c0fd49d	0.008778718
228	0x3d3937d8	0.045219272
229	0x3ce06c4f	0.027395396
230	0xbb699efb	-0.0035647738
231	0xbc83755f	-0.016047178
232	0xbcaa0e2f	-0.020758716
233	0x3c632833	0.013864565
234	0x3bceb14f	0.006307758
235	0xbcc1f6fc	-0.023677342
236	0x3bba50fd	0.005685924
237	0xbcaafb97	-0.02087192
238	0xbbbcf0ab	-0.0057659945
239	0xbcb53146	-0.022118222
240	0xbcbf9fee	-0.02339169
241	0xbba8e77e	-0.005154549
242	0x3c837121	0.016045155
243	0xbc31d135	-0.0108531015
244	0x3b0421cd	0.0020161748
245	0x3c8f31b4	0.017479755
246	0x3b24b214	0.0025130557
247	0x3ce7d3dd	0.028299266
248	0x3bee9c63	0.0072818263
249	0x3c75ea8c	0.015009534
250	0xbbf724d0	-0.00754223
251	0xbc4de257	-0.012566171
252	0x3cea92be	0.028634425
253	0xbcc03a6e	-0.023465361
254	0xb8acdb8a	-8.2424915e-05
255	0x3c60fca0	0.0137321055
